…
press enter to continue...self.xtrain:(3, 25, 6)
self.ytrain:(3,)
press enter to continue...1/1 [==============================] - ETA: 0s - loss: 1.2740 - accuracy: 0.0000e+001/1 [==============================] - 1s 661ms/step - loss: 1.2740 - accuracy: 0.0000e+00
Model: "sequential"
_________________________________________________________________
Layer (type)                 Output Shape              Param #   
=================================================================
flatten (Flatten)            (None, 150)               0         
_________________________________________________________________
batch_normalization (BatchNo (None, 150)               600       
_________________________________________________________________
dense (Dense)                (None, 64)                9664      
_________________________________________________________________
dense_1 (Dense)              (None, 32)                2080      
_________________________________________________________________
dense_2 (Dense)              (None, 16)                528       
_________________________________________________________________
dense_3 (Dense)              (None, 8)                 136       
_________________________________________________________________
dense_4 (Dense)              (None, 3)                 27        
=================================================================
Total params: 13,035
Trainable params: 12,735
Non-trainable params: 300
_________________________________________________________________
None
batch_normalization/gamma:0 (150,)
batch_normalization/beta:0 (150,)
dense/kernel:0 (150, 64)
dense/bias:0 (64,)
dense_1/kernel:0 (64, 32)
dense_1/bias:0 (32,)
dense_2/kernel:0 (32, 16)
…
